…
            "text/markdown": "<span class=\"markdown prose dark:prose-invert contents\"><hr />\n<h3 id=\"model-summary\">Model Summary</h3></span>"
          }
        }
      ],
      "console": []
    },
    {
      "id": "emfo",
      "code_hash": "a3eb1b54d3d72804e7b7fe58e9f6b27a",
      "outputs": [
        {
          "type": "data",
          "data": {
            "text/html": "<pre class='text-xs'>==========================================================================================\nLayer (type:depth-idx)                   Output Shape              Param #\n==========================================================================================\nCNN                                      [1, 10]                   --\n\u251c\u2500Conv2d: 1-1                            [1, 8, 28, 28]            80\n\u251c\u2500MaxPool2d: 1-2                         [1, 8, 14, 14]            --\n\u251c\u2500Conv2d: 1-3                            [1, 16, 14, 14]           1,168\n\u251c\u2500MaxPool2d: 1-4                         [1, 16, 7, 7]             --\n\u251c\u2500Linear: 1-5                            [1, 128]                  100,480\n\u251c\u2500Linear: 1-6                            [1, 10]                   1,290\n==========================================================================================\nTotal params: 103,018\nTrainable params: 103,018\nNon-trainable params: 0\nTotal mult-adds (Units.MEGABYTES): 0.39\n==========================================================================================\nInput size (MB): 0.00\nForward/backward pass size (MB): 0.08\nParams size (MB): 0.41\nEstimated Total Size (MB): 0.49\n==========================================================================================</pre>"
…
