…
      "code_hash": "a38a0ee9e06194c3c5e91b96f47cf756",
      "outputs": [
        {
          "type": "data",
          "data": {
            "text/html": "<pre class='text-xs'>==================================================================================================================================\nLayer (type (var_name))                  Input Shape        Output Shape       Param #            Kernel Shape       Mult-Adds\n==================================================================================================================================\nCNN (CNN)                                [1, 1, 28, 28]     [1, 10]            --                 --                 --\n\u251c\u2500Conv2d (conv1)                         [1, 1, 28, 28]     [1, 8, 28, 28]     80                 [3, 3]             62,720\n\u251c\u2500MaxPool2d (pool)                       [1, 8, 28, 28]     [1, 8, 14, 14]     --                 2                  --\n\u251c\u2500Conv2d (conv2)                         [1, 8, 14, 14]     [1, 16, 14, 14]    1,168              [3, 3]             228,928\n\u251c\u2500MaxPool2d (pool)                       [1, 16, 14, 14]    [1, 16, 7, 7]      --                 2                  --\n\u251c\u2500Linear (fc1)                           [1, 784]           [1, 128]           100,480            --                 100,480\n\u251c\u2500Linear (fc2)                           [1, 128]           [1, 10]            1,290              --                 1,290\n==================================================================================================================================\nTotal params: 103,018\nTrainable params: 103,018\nNon-trainable params: 0\nTotal mult-adds (Units.MEGABYTES): 0.39\n==================================================================================================================================\nInput size (MB): 0.00\nForward/backward pass size (MB): 0.08\nParams size (MB): 0.41\nEstimated Total Size (MB): 0.49\n==================================================================================================================================</pre>"
…
